…
         [-2.9670e-01, -3.2646e-01,  4.4463e-01,  ..., -4.7684e-01,
          -5.2831e-01,  1.1244e+00],
         ...,
         [-7.7595e-01, -2.2694e-01, -9.2006e-01,  ..., -4.6082e-01,
          -2.6381e-01,  6.8289e-01],
         [-2.3486e-01, -1.3661e-01,  3.0978e-01,  ..., -6.1541e-03,
           5.1028e-01,  4.2615e-01],
         [-1.7174e-02, -5.6349e-01, -2.0075e-01,  ...,  3.1667e-01,
          -1.6992e-01,  1.0967e+00]]], device='cuda:0')]}
*********************TRAIN B******************
<class 'dict'>
dict_keys(['input_ids', 'token_type_ids', 'attention_mask', 'labels'])
4
BertModel(
  (embeddings): BertEmbeddings(
    (word_embeddings): Embedding(28996, 1024, padding_idx=0)
    (position_embeddings): Embedding(512, 1024)
    (token_type_embeddings): Embedding(2, 1024)
    (LayerNorm): LayerNorm((1024,), eps=1e-12, elementwise_affine=True)
    (dropout): Dropout(p=0.1, inplace=False)
  )
  (encoder): BertEncoder(
    (layer): ModuleList(
      (0-23): 24 x BertLayer(
        (attention): BertAttention(
          (self): BertSelfAttention(
            (query): Linear(in_features=1024, out_features=1024, bias=True)
            (key): Linear(in_features=1024, out_features=1024, bias=True)
            (value): Linear(in_features=1024, out_features=1024, bias=True)
            (dropout): Dropout(p=0.1, inplace=False)
          )
          (output): BertSelfOutput(
            (dense): Linear(in_features=1024, out_features=1024, bias=True)
            (LayerNorm): LayerNorm((1024,), eps=1e-12, elementwise_affine=True)
            (dropout): Dropout(p=0.1, inplace=False)
          )
        )
        (intermediate): BertIntermediate(
          (dense): Linear(in_features=1024, out_features=4096, bias=True)
          (intermediate_act_fn): GELUActivation()
        )
        (output): BertOutput(
          (dense): Linear(in_features=4096, out_features=1024, bias=True)
          (LayerNorm): LayerNorm((1024,), eps=1e-12, elementwise_affine=True)
          (dropout): Dropout(p=0.1, inplace=False)
        )
      )
    )
  )
  (pooler): BertPooler(
    (dense): Linear(in_features=1024, out_features=1024, bias=True)
    (activation): Tanh()
  )
)