…
        [[-0.7043,  0.0799, -0.2382,  ...,  0.5002,  0.3678,  0.4404],
         [-0.9006, -0.6652, -0.1234,  ..., -0.2741,  0.4599,  0.2295],
         [-0.5546,  0.0772, -0.1142,  ...,  0.0902,  0.2655,  1.0181],
         ...,
         [-0.4275,  0.1695,  0.3450,  ...,  0.1340,  0.3597, -0.2690],
         [-0.4058, -0.7167, -0.7819,  ..., -0.1753, -0.1211,  0.1845],
         [-0.2448, -0.3058, -0.5238,  ...,  0.0813,  0.6083,  0.7217]]],
       device='cuda:0')]}
*********************TRAIN B******************
<class 'dict'>
dict_keys(['input_ids', 'token_type_ids', 'attention_mask', 'labels'])
4
BertModel(
  (embeddings): BertEmbeddings(
    (word_embeddings): Embedding(30522, 768, padding_idx=0)
    (position_embeddings): Embedding(512, 768)
    (token_type_embeddings): Embedding(2, 768)
    (LayerNorm): LayerNorm((768,), eps=1e-12, elementwise_affine=True)
    (dropout): Dropout(p=0.1, inplace=False)
  )
  (encoder): BertEncoder(
    (layer): ModuleList(
      (0-11): 12 x BertLayer(
        (attention): BertAttention(
          (self): BertSelfAttention(
            (query): Linear(in_features=768, out_features=768, bias=True)
            (key): Linear(in_features=768, out_features=768, bias=True)
            (value): Linear(in_features=768, out_features=768, bias=True)
            (dropout): Dropout(p=0.1, inplace=False)
          )
          (output): BertSelfOutput(
            (dense): Linear(in_features=768, out_features=768, bias=True)
            (LayerNorm): LayerNorm((768,), eps=1e-12, elementwise_affine=True)
            (dropout): Dropout(p=0.1, inplace=False)
          )
        )
        (intermediate): BertIntermediate(
          (dense): Linear(in_features=768, out_features=3072, bias=True)
          (intermediate_act_fn): GELUActivation()
        )
        (output): BertOutput(
          (dense): Linear(in_features=3072, out_features=768, bias=True)
          (LayerNorm): LayerNorm((768,), eps=1e-12, elementwise_affine=True)
          (dropout): Dropout(p=0.1, inplace=False)
        )
      )
    )
  )
  (pooler): BertPooler(
    (dense): Linear(in_features=768, out_features=768, bias=True)
    (activation): Tanh()
  )
)
           2.2045e-01,  5.7109e-01],