…
        [[-0.2589, -0.0061, -0.3390,  ..., -0.0866,  0.2515,  0.1942],
         [-0.7285, -0.7626, -0.8241,  ..., -0.2336, -0.2593,  0.3358],
         [-0.6454, -0.0124, -0.9810,  ...,  0.1407,  0.5625, -0.0343],
         ...,
         [-0.0340, -0.1764, -0.0458,  ...,  0.6189,  0.5564,  0.5351],
         [-0.0407, -0.5433, -0.5355,  ...,  0.3525, -0.0433,  0.3595],
         [-0.5754, -0.2876, -0.7614,  ..., -0.1198,  0.2409,  0.2819]]],
       device='cuda:0')]}
*********************TRAIN B******************
<class 'dict'>
dict_keys(['input_ids', 'token_type_ids', 'attention_mask', 'labels'])
4
BertModel(
  (embeddings): BertEmbeddings(
    (word_embeddings): Embedding(28996, 1024, padding_idx=0)
    (position_embeddings): Embedding(512, 1024)
    (token_type_embeddings): Embedding(2, 1024)
    (LayerNorm): LayerNorm((1024,), eps=1e-12, elementwise_affine=True)
    (dropout): Dropout(p=0.1, inplace=False)
  )
  (encoder): BertEncoder(
    (layer): ModuleList(
      (0-23): 24 x BertLayer(
        (attention): BertAttention(
          (self): BertSelfAttention(
            (query): Linear(in_features=1024, out_features=1024, bias=True)
            (key): Linear(in_features=1024, out_features=1024, bias=True)
            (value): Linear(in_features=1024, out_features=1024, bias=True)
            (dropout): Dropout(p=0.1, inplace=False)
          )
          (output): BertSelfOutput(
            (dense): Linear(in_features=1024, out_features=1024, bias=True)
            (LayerNorm): LayerNorm((1024,), eps=1e-12, elementwise_affine=True)
            (dropout): Dropout(p=0.1, inplace=False)
          )
        )
        (intermediate): BertIntermediate(
          (dense): Linear(in_features=1024, out_features=4096, bias=True)
          (intermediate_act_fn): GELUActivation()
        )
        (output): BertOutput(
          (dense): Linear(in_features=4096, out_features=1024, bias=True)
          (LayerNorm): LayerNorm((1024,), eps=1e-12, elementwise_affine=True)
          (dropout): Dropout(p=0.1, inplace=False)
        )
      )
    )
  )
  (pooler): BertPooler(
    (dense): Linear(in_features=1024, out_features=1024, bias=True)
    (activation): Tanh()
  )
)
<class 'dict'>
input_ids tensor([[ 101, 1327, 1110,  ..., 1830, 1559,  102],
        [ 101, 1327, 1110,  ..., 1580,  102,    0],
        [ 101, 1327, 1110,  ..., 1161,  102,    0],
        ...,
        [ 101, 1327, 1110,  ...,    0,    0,    0],
        [ 101, 1327, 1110,  ...,    0,    0,    0],
        [ 101, 1327, 1110,  ...,    0,    0,    0]], device='cuda:0') torch.Size([32, 45])
…
